labsnlp/best_checkpoint.pt (torch, 61015 bytes, 6 tensors)

lstm.weight_ih_l0 f4 [140, 50]
0.13798444 0.02576292 0.13282762 0.10181038 0.040486827 0.034233004 -0.06402689 -0.0921022
0.01017472 0.070565104 -0.022694565 0.09252874 -0.22261354 0.09273342 0.35089195 0.14186293
-0.13833754 0.019738315 0.20920159 -0.16507149 -0.23410082 0.059995897 0.0730965 0.11709137
-0.008378437 -0.20915942 0.0064010946 0.0063756024 0.19594999 0.034827136 -0.027624603 0.097526625
-0.31400752 -0.1798325 -0.093781576 -0.10806058 -0.019835602 -0.13405052 0.015945073 -0.045656018
-0.3270363 -0.014078637 -0.026173508 0.26873714 -0.01827443 -0.041964363 -0.08789006 0.030434607
0.07498608 0.05909569 -0.07208862 0.0980347 -0.05737661 0.15038182 0.03527931 -0.018278494
0.091261536 -0.028538037 -0.18439654 0.023864174 -0.1063628 -0.024071269 -0.07611886 0.07363329
-0.17795144 -0.11321967 0.17122048 0.017802855 0.039614826 -0.049517497 0.04093054 -0.039252937
-0.120097145 0.008197116 0.028159749 0.31624818 0.029173428 0.07926859 -0.15910497 -0.01823052
-0.37440568 0.0061221737 0.19977295 0.12818542 -0.064109415 -0.10038378 -0.13351764 -0.0046178736
-0.10967639 0.07462791 0.044116538 -0.0028166738 -0.08003869 -0.04519518 -0.027247045 -0.110050894
-0.018293424 -0.022206578 0.06888578 -0.056438796 -0.018041648 -0.03591486 -0.03686864 0.3009302
-0.108473875 -0.21181168 -0.093684986 0.008753547 -0.17240112 -0.16182305 -0.056422643 -0.029990051
-0.120854124 0.12629001 -0.05992146 -0.06872081 -0.11229473 0.10358347 0.058345642 -0.16327006
-0.14597818 0.079504445 -0.14797743 -0.11125955 -0.09267901 0.3954084 0.20512117 0.009583641
0.20749217 0.031072302 -0.6059907 -0.09004756 -0.33017567 -0.031037947 0.017526647 0.01751627
-0.090946436 -0.1196848 -0.041554928 0.13409553 -0.12048775 -0.086033046 -0.0253187 0.19918929
-0.07719991 -0.022635609 0.014070503 0.26024988 0.033803403 -0.005018537 -0.31907344 0.32557616
0.08099834 0.35176954 -0.027500037 -0.18727662 -0.124960154 0.009284422 -0.47462645 -0.05226233
-0.08201145 -0.1080209 -0.28199798 0.2774607 -0.0647401 -0.07057845 -0.05431334 0.06018238
0.11434335 -0.27526218 0.081781164 0.15226096 -0.20466316 0.052413993 -0.20687129 0.028360413
0.086738974 -0.006536387 0.1472106 0.005774133 0.2885003 -0.069713145 -0.27837807 0.096305214
0.030845094 -0.16190383 -0.06285387 -0.12724486 -0.027150102 0.08732656 -0.08299811 -0.16298985
-0.021344565 0.06258094 -0.28731993 -0.28153726 -0.062524796 -0.13967898 -0.011643399 -0.03298333
-0.08946993 0.10616042 -0.070205614 0.2149874 0.042148545 0.010676768 0.05635512 -0.022400498
-0.13080946 0.12789406 0.009174253 0.19948532 -0.099883884 0.20397468 0.021705773 -0.00410614
0.0906926 -0.048489824 0.20678656 0.029495928 0.08923478 -0.010983674 -0.14013155 0.13935727
0.029257363 0.32233065 0.0035498308 0.014062291 -0.17167401 -0.057292264 -0.46012843 0.07736918
0.13484427 0.22069167 -0.16198675 -0.13187625 -0.12589481 0.025321817 0.024922518 0.0018491069
0.05837587 0.01516219 -0.11088111 -0.020950468 -0.14666231 -0.14280874 -0.0049799737 -0.063331515
0.16644515 -0.07636505 -0.014473072 0.04932134 0.10585909 0.15543693 -0.113661446 0.06931874
00000000: cb4b 0d3e c20c d33c f703 083e f681 d03d
00000010: 84d5 253d e837 0c3d 8820 83bd 14a0 bcbd
00000020: deb3 263c 7084 903d f4e9 b9bc b57f bd3d
00000030: cef4 63be 05eb bd3d 1ca8 b33e 8444 113e
00000040: 5ba8 0dbe 3fb2 a13c f138 563e 8008 29be
00000050: 20b8 6fbe 42be 753d 9eb3 953d 9acd ef3d
00000060: b645 09bc e32d 56be 46c0 d13b 6eea d03b
00000070: 1da7 483e e6a6 0e3d fe4c e2bc 0abc c73d
00000080: 98c5 a0be 0326 38be 8e10 c0bd de4e ddbd
00000090: 467e a2bc 8a44 09be 3e9f 823c ce01 3bbd
000000a0: 4d71 a7be 15aa 66bc d369 d6bc ea97 893e
000000b0: 42b4 95bc d3e2 2bbd b4ff b3bd ff51 f93c
000000c0: 4d92 993d 520e 723d 33a3 93bd 6bc6 c83d
000000d0: bc03 6bbd b1fd 193e 0a81 103d c8bc 95bc
000000e0: 54e7 ba3d 9ac8 e9bc 72d2 3cbe cd7e c33c
000000f0: bdd4 d9bd 1c31 c5bc 34e4 9bbd 0dcd 963d
00000100: e738 36be b7df e7bd 6c54 2f3e 4bd7 913c
00000110: 2843 223d dcd2 4abd c8a6 273d b0c7 20bd
00000120: 7ef5 f5bd 324d 063c 46af e63c 48eb a13e
00000130: 1dfd ee3c 9257 a23d 6aec 22be 2c58 95bc
00000140: 1ab2 bfbe 849c c83b 4891 4c3e 0a43 033e
00000150: cc4b 83bd 0396 cdbd d9b8 08be 8851 97bb
00000160: 049e e0bd 85d6 983d 8bb3 343d f297 38bb
00000170: 53eb a3bd 951e 39bd 3235 dfbc 5d62 e1bd
00000180: 17dc 95bc 92ea b5bc fd13 8d3d 5e2c 67bd
00000190: 14cc 93bc 761b 13bd 9203 17bd 8613 9a3e
000001a0: 8d27 debd 29e5 58be eadd bfbd 0a6b 0f3c
000001b0: eb89 30be f1b4 25be 6e1b 67bd b2ad f5bc
000001c0: 5e82 f7bd 2b52 013e 3470 75bd 7fbd 8cbd
000001d0: c8fa e5bd 9223 d43d d7fb 6e3d 4430 27be
000001e0: 4e7b 15be 3ad3 a23d 6587 17be 0cdc e3bd
000001f0: 7ece bdbd f872 ca3e 490b 523e b404 1d3c
00000200: d478 543e 578b fe3c 3522 1bbf db6a b8bd
00000210: c90c a9be 4b43 febc 0b94 8f3c 487e 8f3c
00000220: 2042 babd 4e1d f5bd 8035 2abd 5750 093e
00000230: 48c2 f6bd 1832 b0bd 2a69 cfbc 47f8 4b3e
00000240: fd1a 9ebd 506e b9bc f887 663c 793f 853e
00000250: 7075 0a3d 8a72 a4bb 985d a3be ebb1 a63e
00000260: 75e2 a53d 231b b43e c247 e1bc 71c5 3fbe
00000270: 1ceb ffbd b01d 183c 3d02 f3be 0611 56bd
00000280: 9ef5 a7bd 103a ddbd 0a62 90be 540f 8e3e
00000290: 7596 84bd 6f8b 90bd aa77 5ebd cd81 763d
000002a0: d92c ea3d 2aef 8cbe e27c a73d 4cea 1b3e
000002b0: 3893 51be 0eb0 563d 11d6 53be 1954 e83c
000002c0: 34a4 b13d 302f d6bb 60be 163e f034 bd3b
000002d0: 50b6 933e c4c5 8ebd 9287 8ebe ab3b c53d
000002e0: daae fc3c 1eca 25be 88b9 80bd 7a4c 02be
000002f0: e469 debc 44d8 b23d eafa a9bd d0e6 26be
00000300: ccda aebc 702a 803d 991b 93be a725 90be
00000310: 000d 80bd 0208 0fbe f4c3 3ebc 8719 07bd
00000320: 033c b7bd a26a d93d f6c7 8fbd a825 5c3e
00000330: f4a3 2c3d 9ced 2e3c a0d4 663d 4081 b7bc
00000340: eaf2 05be a9f6 023e 9b4f 163c e145 4c3e
00000350: ec8f ccbd bdde 503e 4ed0 b13c cd8c 86bb
00000360: 0bbd b93d 449d 46bd dbbf 533e 72a1 f13c
00000370: b9c0 b63d def4 33bc a57e 0fbe acb3 0e3e
00000380: 23ad ef3c 8608 a53e 47a4 683b 8665 663c
00000390: 50cb 2fbe 4bab 6abd f495 ebbe bc73 9e3d
000003a0: 9e14 0a3e fffc 613e dbdf 25be 910a 07be
000003b0: 92ea 00be b36f cf3c 4f2a cc3c bb5d f23a
000003c0: 891b 6f3d d66a 783c a315 e3bd 51a0 abbc
000003d0: a52e 16be 743c 12be 0c2f a3bb f4b3 81bd
000003e0: 9970 2a3e 4865 9cbd 7720 6dbc 2c05 4a3d
000003f0: a7cc d83d dc2a 1f3e 55c7 e8bd fcf6 8d3d

lstm.weight_hh_l0 f4 [140, 35]
0.022516701 -0.011375795 -0.01577707 0.0698222 -0.011189819 0.035404798 0.21613106 -0.4932133
0.0013146421 -0.002399818 -0.15973689 -0.115984574 -0.17295617 0.011166223 -0.006256071 0.0013067396
-0.005379978 -0.017096734 -0.06141764 0.0152864605 -0.03887265 0.0012770379 -0.007404928 -0.034481473
0.05033698 0.017667117 0.007124915 0.24412015 -0.019566463 -0.0019008345 -0.018252872 0.03071425
0.0014481955 -0.013078498 -0.10929358 -0.010097772 9.83635e-05 -0.00021069628 0.00047530775 -0.0072674598
0.019981876 -0.32991043 -0.00106169 -0.00088416203 0.0066745775 0.00039112475 0.006148619 0.024522454
-0.0041609174 0.012927928 0.0014230328 -0.014218365 0.011671769 0.01185084 0.0076176026 -0.001272063
0.00011326671 -0.0023096746 0.20744866 -0.0009999743 -1.5008663e-05 -0.013854974 -0.004252474 0.0036953418
-0.0037179978 0.00066580414 -0.026771866 -0.002251679 0.00086584373 -0.11659702 0.008175824 -0.0062208017
0.017760219 0.0036199028 -0.009824314 -0.0050406563 -0.19834611 -0.45463985 0.003398201 -0.010511177
-0.04689208 -0.013206936 -0.028313417 0.0012771097 -0.005028568 0.00015658405 -0.042582955 0.0045774356
-0.21970135 0.008346127 0.008216629 -3.070117e-06 -0.017490499 0.399254 0.0009953897 0.021676775
-0.0017831865 0.19562034 -0.004717109 0.0036993788 -0.012365965 0.003190522 -0.0013074661 -0.004263331
0.027131455 -0.17858873 0.0288234 0.06526043 -0.12043443 0.07742399 -0.05925149 0.1329407
-0.5637508 -0.0025093365 0.0007789115 -0.09283057 0.07137351 0.3875553 -0.112762734 -0.009597114
0.029603684 0.033804815 0.020840371 0.09426644 0.0041039153 0.047820337 -0.0041337973 0.0095063085
0.19630493 -0.07178708 0.01309218 -0.040122464 0.43943465 0.042073403 0.0057092845 -0.029981941
-0.13302857 0.00016246038 0.008049385 0.068238854 0.005744377 0.0015283639 -0.0009987549 0.0030093014
0.010472733 0.0010998482 -0.15274039 0.016422542 -0.0024766983 -0.0011940188 -0.011479427 0.041002546
0.007332361 0.002194575 0.017118758 -0.0004067914 0.03571809 0.01818439 0.013271101 0.0020062907
0.0034121005 -0.0013771218 -0.004532684 0.36665174 0.00027718622 -0.0058872197 -0.0054430543 0.020737343
-0.003642067 0.0028277058 0.0052481387 -0.03891168 -0.005966687 0.0008967726 -0.1109359 0.09097771
-0.004543105 -0.007904996 0.02656791 -0.008179164 0.0015644794 0.05372814 -0.39984703 0.0038157937
-0.0007231744 -0.40844968 -0.07607214 -0.0500963 -0.0019345698 0.002768575 -0.0003320882 -0.061813466
0.021636507 0.04244797 0.023510754 -0.016477557 0.0013000233 -0.017877094 0.2798071 0.014995038
0.0057880655 0.002278897 0.5691908 -0.00810528 0.015034224 -0.08487246 0.062303163 0.00017098874
-0.0025353504 0.004012108 -0.10605599 -0.023027126 7.569922e-05 -0.0041354257 0.006699672 -0.13156442
-0.7907596 -0.004523671 -0.0028771856 -0.010313394 -0.16002077 -0.0305745 -0.011748236 0.006205718
0.09236913 0.0077691907 -0.21717142 0.016824553 0.07880732 -0.053902 0.009246524 0.0003534438
-0.0022232868 0.99657184 -0.0006029798 -0.017619312 0.052239522 0.13077207 0.01768995 -0.025018327
-0.0347075 -0.065270625 -0.025440294 -0.0073313364 -0.02153056 -0.43016186 0.03713324 0.069148235
-0.3361846 0.2110412 -0.12310017 0.54753053 0.013810182 -0.030265719 -5.2236028e-05 0.58134985
00000000: f274 b83c 8b61 3abc ea3e 81bc f1fe 8e3d
00000010: 8155 37bc 9f04 113d 7651 5d3e 7486 fcbe
00000020: 1250 ac3a 4446 1dbb 1192 23be 5289 edbd
00000030: 6c1b 31be 89f2 363c baff ccbb e846 ab3a
00000040: 874a b0bb 730e 8cbc 1091 7bbd 1074 7a3c
00000050: ee38 1fbd 4862 a73a 0aa5 f2bb 723c 0dbd
00000060: 262e 4e3d a1ba 903c 1e78 e93b a2fa 793e
00000070: d949 a0bc 6c25 f9ba 0c87 95bc 739c fb3c
00000080: 61d1 bd3a 3247 56bc 50d5 dfbd 2071 25bc
00000090: 8048 ce38 5aee 5cb9 ba32 f939 df23 eebb
000000a0: 08b1 a33c 05ea a8be 6828 8bba 1cc7 67ba
000000b0: 6ab6 da3b e00f cd39 5b7a c93b 50e3 c83c
000000c0: 4e58 88bb a9cf 533c 0f85 ba3a 25f4 68bc
000000d0: f33a 3f3c 072a 423c 159d f93b 5abb a6ba
000000e0: 9a89 ed38 e95d 17bb 6c6d 543e 9211 83ba
000000f0: b7cd 7bb7 f9ff 62bc 5658 8bbb 8c2d 723b
00000100: a7a9 73bb 5c89 2e3a ac50 dbbc e890 13bb
00000110: caf9 623a 6bca eebd e4f3 053c ded7 cbbb
00000120: e17d 913c e43b 6d3b 29f6 20bc 172c a5bb
00000130: 3e1b 4bbe 8ec6 e8be 5ab4 5e3b 1237 2cbc
00000140: e911 40bd e861 58bc 8af1 e7bc b164 a73a
00000150: b0c6 a4bb b630 2439 776b 2ebd 50fe 953b
00000160: 64f9 60be 32be 083c 0a9f 063c 3508 4eb6
00000170: 3c48 8fbc 056b cc3e bc77 823a 7e93 b13c
00000180: cfb9 e9ba b350 483e fa91 9abb 4771 723b
00000190: 9e9a 4abc 1418 513b 485f abba 6ab3 8bbb
000001a0: c942 de3c f7df 36be 0d1f ec3c 43a7 853d
000001b0: 54a6 f6bd 7890 9e3d b1b1 72bd 9b21 083e
000001c0: f951 10bf ae73 24bb de2f 4c3a f41d bebd
000001d0: 462c 923d a66d c63e 26f0 e6bd 373d 1dbc
000001e0: 6d83 f23c eb76 0a3d 6db9 aa3c c30e c13d
000001f0: 237a 863b 42df 433d ce74 87bb 59c0 1b3c
00000200: 2904 493e 1b05 93bd 9580 563c 7457 24bd
00000210: 94fd e03e 2955 2c3d f314 bb3b b09c f5bc
00000220: a438 08be 205a 2a39 91e1 033c d0c0 8b3d
00000230: 543b bc3b 6253 c83a a7e8 82ba b337 453b
00000240: d395 2b3c c828 903a fa67 1cbe 9188 863c
00000250: 1a50 22bb 9f80 9cba 3514 3cbc 49f2 273d
00000260: 4d44 f03b dcd2 0f3b a33c 8c3c 9e46 d5b9
00000270: 224d 123d 6ef7 943c 086f 593c f97b 033b
00000280: 8c9d 5f3b 8a80 b4ba e986 94bb c7b9 bb3e
00000290: 4e53 9139 94e9 c0bb a65b b2bb 5ce1 a93c
000002a0: bfaf 6ebb 0851 393b 94f8 ab3b db61 1fbd
000002b0: 3384 c3bb 6415 6b3a 5c32 e3bd 8652 ba3d
000002c0: 54de 94bb f583 01bc f2a4 d93c e601 06bc
000002d0: 380f cd3a 0a12 5c3d c0b8 ccbe 6512 7a3b
000002e0: 6a93 3dba 5120 d1be b6cb 9bbd c731 4dbd
000002f0: 6491 fdba fb70 353b 201c aeb9 1e30 7dbd
00000300: 0b3f b13c ecdd 2d3d a099 c03c f1fb 86bc
00000310: 8b65 aa3a fc72 92bc e042 8f3e bfad 753c
00000320: d0a9 bd3b 8c59 153b 7db6 113f 02cc 04bc
00000330: 1b52 763c 9dd1 adbd 9a31 7f3d 714b 3339
00000340: 1f28 26bb 0078 833b e233 d9bd 62a3 bcbc
00000350: b6c0 9e38 7782 87bb ec88 db3b d3b8 06be
00000360: 396f 4abf 4e3b 94bb 2a8f 3cbb 82f9 28bc
00000370: 7cdc 23be 6077 fabc ac7b 40bc 5659 cb3b
00000380: 072c bd3d b294 fe3b 2f62 5ebe a5d3 893c
00000390: bb65 a13d 58c8 5cbd bc7e 173c 6c4e b939
000003a0: 90b4 11bb 551f 7f3f 4a11 1eba 6056 90bc
000003b0: 1cf9 553d 1de9 053e 84ea 903c 3cf3 ccbc
000003c0: 7429 0ebd 9bac 85bd 2a68 d0bc b53b f0bb
000003d0: db60 b0bc 2d3e dcbe 0619 183d 979d 8d3d
000003e0: 6320 acbe 2f1b 583e f11b fcbd f62a 0c3f
000003f0: 1a44 623c d0ef f7bc 0218 5bb8 58d3 143f

lstm.bias_ih_l0 f4 [140]
-0.061310623 -0.2326996 -0.5077518 -0.23636661 -0.31453377 -0.274873 -1.002948 -0.13759826
-0.17767891 -0.19808234 0.9567791 0.33271673 -0.09596862 -0.45877182 -0.23940112 -0.17058696
0.2630852 -0.15345973 -0.6274948 -0.10294844 -0.15062782 -0.0023354695 -0.13088617 0.120918535
-0.14561099 -0.4863749 -0.17967308 0.17852147 -0.12985383 -0.30588144 0.0076912027 -0.20197737
-0.79588675 -0.068164386 0.07951094 -0.083900526 -0.04216984 -1.4126151 -0.063937485 -0.09803326
-0.19578159 -1.1465825 0.8590605 -0.11238515 -0.28748518 -0.31483588 -0.20486866 -0.640103
-0.17237467 -0.14565746 -0.12067586 -0.25811744 -0.0543071 -0.8542971 -0.032295674 0.0020066313
-0.0054414044 0.032507643 0.32083845 -0.5203314 -0.12553863 -0.0801239 0.36589867 -0.046490975
-0.094897985 -0.109351054 -0.3177956 -0.32331237 -0.7900012 0.36987853 -0.32118443 0.049984325
1.452153 -0.41698435 0.21519291 -0.18337207 2.5168157 1.4911292 -0.030074757 -0.030651283
0.5942454 0.21325326 0.5979291 -0.1538705 -0.030398887 -0.01573834 0.15551803 -0.025050173
0.19485681 -0.15219606 0.75040275 -0.042669915 0.3005007 -0.41626465 0.23449638 0.16807613
-0.030162444 -0.27269128 0.44941467 -0.0008648797 0.02386497 -0.04097814 -0.38639387 -0.39628556
0.44208783 -0.61740667 -0.28686437 -1.5886631 -0.6794901 -0.36285764 -0.5539215 -2.313877
0.43065614 -0.13655716 -1.8331684 0.2751083 -0.6155476 -0.04268413 -0.68419135 -0.25142923
-0.6996521 -0.9320442 -0.043566294 0.4576201 -0.26445663 -0.100447014 -1.4300345 -0.5077455
0.9158779 -0.30809817 -0.16564105 -0.27345985 0.35613197 -0.3889118 -0.5111182 -0.40528017
-0.41440973 -0.1654773 -0.97712725 -1.0409365
00000000: d920 7bbd ce48 6ebe 06fc 01bf 170a 72be
00000010: 920a a1be 27bc 8cbe 9a60 80bf 8fe6 0cbe
00000020: 76f1 35be 19d6 4abe 7aef 743f d959 aa3e
00000030: 328b c4bd 24e4 eabe 9125 75be 59ae 2ebe
00000040: 1ab3 863e 8c24 1dbe 80a3 20bf a2d6 d2bd
00000050: 2e3e 1abe ad0e 19bb 0607 06be 23a4 f73d
00000060: 0c1b 15be 2206 f9be 38fc 37be 55ce 363e
00000070: 67f8 04be 7e9c 9cbe 7c06 fc3b 28d3 4ebe
00000080: 3cbf 4bbf c599 8bbd a2d6 a23d 0ad4 abbd
00000090: 48ba 2cbd 92d0 b4bf a8f1 82bd a9c5 c8bd
000000a0: f87a 48be 37c3 92bf 64eb 5b3f 2f2a e6bd
000000b0: 4231 93be 2b32 a1be 17c9 51be cadd 23bf
000000c0: fc82 30be 3b27 15be e824 f7bd f827 84be
000000d0: 1f71 5ebd 37b3 5abf 7848 04bd b081 033b
000000e0: cf4d b2bb bc26 053d f044 a43e 7034 05bf
000000f0: 338d 00be 0018 a4bd 1257 bb3e 526d 3ebd
00000100: e059 c2bd 72f3 dfbd 1bb6 a2be 3389 a5be
00000110: 853d 4abf b860 bd3e 4972 a4be 5dbc 4c3d
00000120: 26e0 b93f f97e d5be 885b 5c3e e3c5 3bbe
00000130: 8213 2140 52dd be3f 565f f6bc 6618 fbbc
00000140: 7720 183f 105f 5a3e e211 193f 3a90 1dbe
00000150: 1607 f9bc b1ed 80bc 1e40 1f3e 0536 cdbc
00000160: 8b88 473e 49d9 1bbe 651a 403f a6c6 2ebd
00000170: 3adb 993e a420 d5be d21f 703e 261c 2c3e
00000180: 3b17 f7bc 319e 8bbe ae19 e63e 18b9 62ba
00000190: 7880 c33c b2d8 27bd 6bd5 c5be f1e5 cabe
000001a0: 5659 e23e 5d0e 1ebf e3df 92be 5059 cbbf
000001b0: 10f3 2dbf 7ac8 b9be cdcd 0dbf 9016 14c0
000001c0: f67e dc3e a4d5 0bbe 43a5 eabf ffda 8c3e
000001d0: 8794 1dbf 8ed5 2ebd 2a27 2fbf 55bb 80be
000001e0: 661c 33bf 739a 6ebf 9272 32bd 2f4d ea3e
000001f0: dc66 87be 2ab7 cdbd 5f0b b7bf 9cfb 01bf
00000200: f976 6a3f 0bbf 9dbe cf9d 29be ee02 8cbe
00000210: ee56 b63e 731f c7be a4d8 02bf e280 cfbe
00000220: 832d d4be e272 29be 0325 7abf 683d 85bf

lstm.bias_hh_l0 f4 [140]
-0.06131062 -0.2326996 -0.50775176 -0.2363666 -0.31453377 -0.27487302 -1.0029482 -0.13759826
-0.17767891 -0.19808234 0.9567791 0.33271673 -0.095968574 -0.45877188 -0.23940112 -0.17058699
0.2630852 -0.15345973 -0.6274948 -0.102948494 -0.15062764 -0.0023354753 -0.1308862 0.120918535
-0.14561099 -0.4863749 -0.17967306 0.17852147 -0.1298538 -0.30588144 0.0076911487 -0.20197758
-0.79588675 -0.068164386 0.07951094 -0.083900526 -0.042169888 -1.4126148 -0.063937485 -0.098033324
-0.19578157 -1.1465822 0.8590606 -0.11238515 -0.28748482 -0.31483588 -0.20486866 -0.640103
-0.17237467 -0.14565746 -0.12067591 -0.25811747 -0.0543071 -0.8542971 -0.03229569 0.0020065792
-0.005441408 0.032507643 0.32083845 -0.52033144 -0.12553863 -0.0801239 0.36589867 -0.046491027
-0.094897985 -0.109351054 -0.3177957 -0.32331237 -0.7900012 0.36987853 -0.32118437 0.04998433
1.452153 -0.41698435 0.21519293 -0.1833721 2.5168157 1.4911293 -0.030074757 -0.030651346
0.59424543 0.21325326 0.5979291 -0.15387051 -0.030398887 -0.01573834 0.15551801 -0.025050173
0.19485681 -0.15219608 0.75040275 -0.042669915 0.3005007 -0.41626465 0.23449641 0.16807613
-0.030162465 -0.27269128 0.44941482 -0.00086488994 0.023864973 -0.04097814 -0.38639387 -0.39628556
0.44208783 -0.61740667 -0.28686434 -1.5886631 -0.67949003 -0.36285764 -0.5539215 -2.3138773
0.4306562 -0.13655719 -1.8331684 0.2751083 -0.6155476 -0.04268413 -0.68419135 -0.2514292
-0.6996521 -0.9320442 -0.043566294 0.4576201 -0.2644566 -0.100447014 -1.4300345 -0.5077455
0.9158779 -0.30809823 -0.16564105 -0.27345985 0.35613197 -0.38891178 -0.5111182 -0.40528017
-0.41440973 -0.1654773 -0.9771274 -1.0409365
00000000: d820 7bbd ce48 6ebe 05fc 01bf 160a 72be
00000010: 920a a1be 28bc 8cbe 9b60 80bf 8fe6 0cbe
00000020: 76f1 35be 19d6 4abe 7aef 743f d959 aa3e
00000030: 2c8b c4bd 26e4 eabe 9125 75be 5bae 2ebe
00000040: 1ab3 863e 8c24 1dbe 80a3 20bf a9d6 d2bd
00000050: 223e 1abe c60e 19bb 0807 06be 23a4 f73d
00000060: 0c1b 15be 2206 f9be 37fc 37be 55ce 363e
00000070: 65f8 04be 7e9c 9cbe 0806 fc3b 36d3 4ebe
00000080: 3cbf 4bbf c599 8bbd a2d6 a23d 0ad4 abbd
00000090: 55ba 2cbd 90d0 b4bf a8f1 82bd b2c5 c8bd
000000a0: f77a 48be 35c3 92bf 65eb 5b3f 2f2a e6bd
000000b0: 3631 93be 2b32 a1be 17c9 51be cadd 23bf
000000c0: fc82 30be 3b27 15be ee24 f7bd f927 84be
000000d0: 1f71 5ebd 37b3 5abf 7c48 04bd d080 033b
000000e0: d74d b2bb bc26 053d f044 a43e 7134 05bf
000000f0: 338d 00be 0018 a4bd 1257 bb3e 606d 3ebd
00000100: e059 c2bd 72f3 dfbd 1eb6 a2be 3389 a5be
00000110: 853d 4abf b860 bd3e 4772 a4be 5ebc 4c3d
00000120: 26e0 b93f f97e d5be 895b 5c3e e5c5 3bbe
00000130: 8213 2140 53dd be3f 565f f6bc 8818 fbbc
00000140: 7820 183f 105f 5a3e e211 193f 3b90 1dbe
00000150: 1607 f9bc b1ed 80bc 1d40 1f3e 0536 cdbc
00000160: 8b88 473e 4ad9 1bbe 651a 403f a6c6 2ebd
00000170: 3adb 993e a420 d5be d41f 703e 261c 2c3e
00000180: 4617 f7bc 319e 8bbe b319 e63e c8b9 62ba
00000190: 7a80 c33c b2d8 27bd 6bd5 c5be f1e5 cabe
000001a0: 5659 e23e 5d0e 1ebf e2df 92be 5059 cbbf
000001b0: 0ff3 2dbf 7ac8 b9be cdcd 0dbf 9116 14c0
000001c0: f87e dc3e a6d5 0bbe 43a5 eabf ffda 8c3e
000001d0: 8794 1dbf 8ed5 2ebd 2a27 2fbf 54bb 80be
000001e0: 661c 33bf 739a 6ebf 9272 32bd 2f4d ea3e
000001f0: db66 87be 2ab7 cdbd 5f0b b7bf 9cfb 01bf
00000200: f976 6a3f 0dbf 9dbe cf9d 29be ee02 8cbe
00000210: ee56 b63e 721f c7be a4d8 02bf e280 cfbe
00000220: 832d d4be e272 29be 0525 7abf 683d 85bf

linear.weight f4 [71, 35]
-0.069086574 -0.027062256 0.008406518 0.06705677 0.01300138 -0.068303905 -0.95676816 -0.08050562
-0.024439598 -0.32900667 0.5560592 -0.6016049 -0.50781316 0.2557168 -0.06033332 -0.06325624
0.03381105 -0.06875516 -0.1734708 0.01308544 -0.13673732 0.09745892 0.079573065 1.4446455
-0.015151787 -0.08749728 0.0017558848 -0.47504196 0.09537595 -0.12541336 0.27087405 -0.003121634
-0.04747136 -0.06920537 0.44790912 -0.026355233 0.10070811 0.26836482 0.28230602 -0.0201976
-0.09911162 -0.3566144 -0.8212642 0.105129406 -0.46468434 -0.4714742 1.0523758 0.67968166
0.25519288 0.157209 -0.020713532 -0.06631472 0.014280399 0.22141464 0.07798711 -0.16722435
0.13945645 0.25756973 0.45873624 -0.08213685 0.022829685 -0.14920829 1.0059873 0.28114623
0.057295565 -0.17380771 0.31667572 0.011019488 0.12260606 -1.0984703 -0.0029768143 0.08519254
-0.27984646 0.048270345 0.10848929 -0.049953904 -1.186928 -0.12424699 -0.17342374 0.09077125
-0.5098374 -0.045570828 -0.06683813 0.07477354 0.08281731 0.172592 0.1648691 -0.04373816
-0.23097292 -0.069692515 0.23911355 -0.06675268 -0.039579634 1.8137056 0.6358677 -0.040798817
0.038773537 0.30997705 0.10183731 -0.13797554 -0.07604397 0.16435702 -0.3047945 -0.011022515
0.399045 0.5192934 -0.010782378 -0.12094851 0.120463446 0.23692557 0.3374737 -0.43670875
0.089435995 -0.039479677 0.13646986 0.5038989 0.085481115 -0.013545863 0.06335869 0.08080735
0.43925565 -0.6982394 0.3003291 0.8078848 0.046349466 0.9026929 0.056836758 -0.066186704
0.6913905 1.1293703 0.1456759 0.03480927 -0.38814393 0.4406736 0.39180064 -0.06044067
-0.11147765 0.5880117 -0.39138514 0.48307163 -0.14072497 -0.07405184 0.032021698 0.095866136
0.0037672508 -0.39378875 -0.85147756 -0.26273298 -0.040039245 -0.1719864 -0.20360084 -0.31946445
-0.29127625 0.09549011 -0.047490545 -0.09765037 0.16560736 -0.040602222 -0.18382515 0.014793671
-0.23633523 0.06933772 0.090723805 0.7865807 -0.31871083 -0.004410861 0.15394719 -0.15711905
-0.05020458 -0.2001152 0.020328375 0.15743518 -0.18953925 -0.17303039 0.0749481 0.3815018
-0.21905449 -0.1202884 0.055115856 -0.17064667 0.1551054 -0.38543117 -1.135779 0.08652327
0.008891106 0.18867421 1.7107081 0.11053157 0.17355926 0.16623706 0.7189881 1.4488311
0.17099266 -0.35414746 0.13956916 -0.13837242 0.039559405 0.29431072 1.1474946 -0.16027644
0.06389958 0.18736099 0.5219971 0.10279091 0.4183238 0.28396702 -0.07723518 -0.33659297
0.12515806 -0.6827482 0.046005994 0.008714849 -0.01066601 0.017212706 0.022480221 -0.04387699
-0.7371796 -0.120424435 -0.009816595 0.0012561092 -0.33644202 -0.17628855 -0.08628888 0.054471895
0.055225782 -0.03957957 0.011158843 0.05468666 -0.0071226526 0.0044379346 -0.014086327 0.0026773643
-0.03903693 1.7783407 -0.007695406 -0.025685348 -0.0188183 0.45557892 -0.014502008 -0.1289109
-0.089043856 0.11713571 -0.23161344 0.0074919383 -0.50325984 0.10324582 0.09379199 0.20824681
0.06112879 -0.07108558 0.017239615 -0.1377232 -0.620459 0.108104035 -0.34832332 -0.18151864
00000000: 437d 8dbd aab1 ddbc 7ebb 093c 0f55 893d
00000010: bd03 553c ebe2 8bbd c2ee 74bf 21e0 a4bd
00000020: 8d35 c8bc 9073 a8be e559 0e3f c702 1abf
00000030: 0b00 02bf 50ed 823e 1220 77bd 7d8c 81bd
00000040: 757d 0a3d 81cf 8cbd 54a2 31be 5064 563c
00000050: de04 0cbe 8b98 c73d 34f7 a23d 25ea b83f
00000060: 333f 78bc c631 b3bd b825 e63a b338 f3be
00000070: 7754 c33d 5c6c 00be 01b0 8a3e 5494 4cbb
00000080: 5471 42bd 8cbb 8dbd 5854 e53e eee6 d7bc
00000090: 0e40 ce3d 1d67 893e 6a8a 903e 7075 a5bc
000000a0: 08fb cabd 2a96 b6be 5f3e 52bf 164e d73d
000000b0: 1beb edbe 1165 f1be 40b4 863f 9eff 2d3f
000000c0: a4a8 823e 65fb 203e 6daf a9bc 03d0 87bd
000000d0: 56f8 693c 85ba 623e b5b7 9f3d dc3c 2bbe
000000e0: accd 0e3e 2ee0 833e 7adf ea3e 5d37 a8bd
000000f0: 5205 bb3c 0fca 18be 31c4 803f 66f2 8f3e
00000100: c1ae 6a3d a6fa 31be 5223 a23e 158b 343c
00000110: e318 fb3d ad9a 8cbf a816 43bb 6d79 ae3d
00000120: 0948 8fbe 20b7 453d a22f de3d 779c 4cbd
00000130: 42ed 97bf 3575 febd fe95 31be 47e6 b93d
00000140: b484 02bf 7aa8 3abd 6ee2 88bd df22 993d
00000150: 1f9c a93d f5bb 303e 72d3 283e c926 33bd
00000160: 2a84 6cbe f3ba 8ebd 2fda 743e a1b5 88bd
00000170: 411e 22bd 8127 e83f 3ac8 223f a91c 27bd
00000180: 00d1 1e3d 50b5 9e3e 1490 d03d 7649 0dbe
00000190: f1bc 9bbd 354d 283e 060e 9cbe c797 34bc
000001a0: a04f cc3e 6af0 043f 92a8 30bc dab3 f7bd
000001b0: 8ab5 f63d 9e9c 723e 5ac9 ac3e 4a98 dfbe
000001c0: 382a b73d 71b5 21bd c1be 0b3e 85ff 003f
000001d0: b910 af3d 78ef 5dbc 33c2 813d 537e a53d
000001e0: 1ee6 e03e d1bf 32bf bcc4 993e 8ad1 4e3f
000001f0: f0d8 3d3d e216 673f a9cd 683d e58c 87bd
00000200: f8fe 303f 358f 903f 102c 153e 2a94 0e3d
00000210: cdba c6be f89f e13e 189a c83e a390 77bd
00000220: 654e e4bd ef87 163f a263 c8be 2a55 f73e
00000230: 351a 10be 7ea8 97bd 2f29 033d 7755 c43d
00000240: fbe3 763b ae9e c9be 6ffa 59bf f084 86be
00000250: 3100 24bd 341d 30be bd7c 50be d890 a3be
00000260: 2922 95be 5290 c33d 7285 42bd ebfc c7bd
00000270: fa94 293e 844e 26bd a93c 3cbe 2761 723c
00000280: dd01 72be ef00 8e3d 67cd b93d 5a5d 493f
00000290: 112e a3be fc88 90bb 55a4 1d3e d1e3 20be
000002a0: 51a3 4dbd 00eb 4cbe b187 a63c b036 213e
000002b0: 9416 42be e12e 31be 647e 993d 3454 c33e
000002c0: d24f 60be c459 f6bd 2ac1 613d 00be 2ebe
000002d0: f3d3 1e3e 3c57 c5be 3561 91bf 1d33 b13d
000002e0: 00ac 113c d033 413e 7cf8 da3f 605e e23d
000002f0: 85b9 313e 0c3a 2a3e 9b0f 383f 4c73 b93f
00000300: b318 2f3e d152 b5be 38eb 0e3e 80b1 0dbe
00000310: 0b09 223d e5af 963e 1ae1 923f 821f 24be
00000320: c8dd 823d 8fdb 3f3e 9aa1 053f 0a84 d23d
00000330: 8a2e d63e 2064 913e 7a2d 9ebd ea55 acbe
00000340: 6f29 003e 96c8 2ebf c870 3c3d bac8 0e3c
00000350: 7dc0 2ebc a901 8d3c 7128 b83c 5cb8 33bd
00000360: cdb7 3cbf 16a1 f6bd c9d5 20bc 08a4 a43a
00000370: 2142 acbe fc84 34be 39b8 b0bd ec1d 5f3d
00000380: 6e34 623d 301e 22bd 94d3 363c 1fff 5f3d
00000390: 2465 e9bb 186c 913b 56ca 66bc b876 2f3b
000003a0: 30e5 1fbd aba0 e33f bf29 fcbb 146a d2bc
000003b0: d628 9abc a441 e93e d599 6dbc 3801 04be
000003c0: a05c b6bd d9e4 ef3d 132c 6dbe ef7e f53b
000003d0: a3d5 00bf 8b72 d33d 0416 c03d a73e 553e
000003e0: 2f62 7a3d 5195 91bd 183a 8d3c 4f07 0dbe
000003f0: 67d6 1ebf a665 dd3d 6f57 b2be 06e0 39be

linear.bias f4 [71]
-1.6568003 -0.4713837 -1.9638822 -1.1496072 -1.3895043 -1.5921533 -1.9427539 -1.0949618
-0.924036 -2.6525128 -1.9425737 -1.9673401 -1.9485183 -1.5702621 -1.5100015 -1.9046592
-1.138603 -1.9700649 -1.8868312 -1.8525904 -1.5874386 -1.1655527 -1.5474463 -1.5148687
-1.5393666 -1.4402931 -1.7040391 -2.0077994 -1.9327438 -1.5958289 -2.029886 -1.5703079
-1.3542365 -1.9962288 -1.7305682 -1.5994613 -1.95886 -1.8957057 -1.8967481 -1.9414198
-1.5250802 -1.5248213 -0.7418861 -1.925135 -1.9099817 -1.8191953 -1.9707248 -0.77661335
-1.4550555 -1.9144228 -2.0125988 -1.6640216 -1.9340183 -1.5303314 -1.9952148 -1.1917589
-1.9280969 -1.923854 -1.9560083 -1.702258 -1.6837964 -2.0034707 -1.2126355 -2.2583816
-1.9994878 -1.9055853 -1.8572705 -1.5375009 -1.9320385 -1.297636 -0.3492163
00000000: 0812 d4bf 3459 f1be 7e60 fbbf 5426 93bf
00000010: 47db b1bf aecb cbbf 29ac f8bf b527 8cbf
00000020: a08d 6cbf c5c2 29c0 41a6 f8bf cdd1 fbbf
00000030: 0c69 f9bf 59fe c8bf bb47 c1bf dfcb f3bf
00000040: bebd 91bf 162b fcbf af83 f1bf af21 edbf
00000050: 3031 cbbf d530 95bf b812 c6bf 38e7 c1bf
00000060: f709 c5bf 865b b8bf f41d dabf c97f 00c0
00000070: 2664 f7bf 1f44 ccbf a7e9 01c0 d9ff c8bf
00000080: 9f57 adbf 6d84 ffbf 4283 ddbf 26bb ccbf
00000090: edbb fabf 7ca6 f2bf a4c8 f2bf 7280 f8bf
000000a0: d435 c3bf 582d c3bf 3fec 3dbf d36a f6bf
000000b0: 487a f4bf 64db e8bf b640 fcbf 22d0 46bf
000000c0: 423f babf ce0b f5bf 6bce 00c0 a9fe d4bf
000000d0: e98d f7bf e6e1 c3bf 3363 ffbf 8e8b 98bf
000000e0: e1cb f6bf d940 f6bf 7b5e fabf 97e3 d9bf
000000f0: a486 d7bf dd38 00c0 a437 9bbf 5389 10c0
00000100: 37ef ffbf 38ea f3bf 0abb edbf d4cc c4bf
00000110: 0a4d f7bf f018 a6bf 7bcc b2be
