labsnlp/best_checkpoint.pt (torch, 61015 bytes, 6 tensors)

lstm.weight_ih_l0 f4 [140, 50]
0	0x3c85115a	0.016243625
1	0x3a2db254	0.0006625999
2	0x3d7a2adc	0.06107603
3	0x3d2bbabc	0.04192613
4	0x3cbc8056	0.023010414
5	0xbc3a3ee8	-0.011367537
6	0xbdb0b11a	-0.086275294
7	0x3c268eae	0.010165853
8	0x3c341319	0.010990881
9	0xbd6c7009	-0.057724033
10	0x3d3bb4bb	0.045826655
11	0xbd7677e0	-0.060172915
12	0xbda3276b	-0.07966503
13	0x3dde7479	0.10862059
14	0x3d35efa2	0.044417985
15	0x3ce4f64e	0.027949478
16	0xbd4903c1	-0.049075846
17	0x3dd6e7b5	0.10493413
18	0xbd94bf7b	-0.072630845
19	0xbe0d7338	-0.13813484
20	0x3d895bb4	0.06706944
21	0x3d2110d7	0.0393227
22	0xbdcd4e02	-0.100246444
23	0x3d8b6bf9	0.068077035
24	0xbd29a527	-0.041417267
25	0xbdb7437a	-0.08948417
26	0xbd7bd0f8	-0.061478585
27	0x3d05254d	0.032506276
28	0x3d96e760	0.0736835
29	0x3c0fcf89	0.008777508
30	0x3e0d6578	0.13808239
31	0x3d8c61a9	0.06854565
32	0xbd5975ea	-0.053090967
33	0x3c3fe201	0.011711598
34	0x3cf2c7a1	0.029636206
35	0x3d1dc94c	0.03852205
36	0xbd87dd3f	-0.06633996
37	0xbd955877	-0.07292264
38	0x3d06f0ea	0.032944597
39	0xbdac847a	-0.084237054
40	0xbdd3b07c	-0.10336396
41	0x3c12c189	0.008957275
42	0x3d1a5a17	0.037683573
43	0xbd307d51	-0.04308826
44	0x3e197ada	0.1498827
45	0xbd73611b	-0.05941878
46	0x3af43ebc	0.0018634419
47	0xbd169e53	-0.036772083
48	0x3e0d13aa	0.13777032
49	0xbd225654	-0.03963311
50	0xbcae86a6	-0.02130444
51	0xbbcd9518	-0.006273877
52	0x3b0b9e57	0.0021304095
53	0xbd0a6c45	-0.03379466
54	0xbc8a1dae	-0.016859856
55	0x3c18f8a0	0.009336621
56	0x3cb984cc	0.02264633
57	0xbc43418f	-0.011917486
58	0x3cfb0459	0.030641722
59	0xbbcfdd90	-0.006343551
60	0xbc4bfbb3	-0.0124501465
61	0xbc84c172	-0.016205523
62	0x3c70a82c	0.014688533
63	0xbc036ac3	-0.008021059
64	0xbd0e4e73	-0.034742784
65	0x3d27b329	0.040942345
66	0x3d1cc3b5	0.03827258
67	0x3ca87ef6	0.020568352
68	0xbbce8d4a	-0.006303464
69	0xbbbaf51d	-0.0057054893
70	0x3cec814a	0.028870244
71	0x3c1e2a08	0.009653576
72	0xbc312c9b	-0.010813857
73	0x3bcaf3f2	0.0061936313
74	0x3caf2fa9	0.02138503
75	0x3c76e718	0.0150697455
76	0xbcd67294	-0.026177682
77	0x3c52736c	0.0128449015
78	0xbccd9bd6	-0.025098722
79	0x3c94767a	0.0181229
80	0x3da91b54	0.082571656
81	0x3ccefdb4	0.02526746
82	0x3d30671b	0.04306708
83	0x3ca8e849	0.020618575
84	0x3cfa7df9	0.030577647
85	0x3c2248c4	0.009905044
86	0xbc65949e	-0.014012484
87	0xbc2b71c5	-0.0104641365
88	0xbc3b45f5	-0.011430253
89	0xbc1acf5a	-0.0094488505
90	0xba928947	-0.0011179828
91	0x3c0ef3bc	0.008725103
92	0xbbcc442d	-0.006233713
93	0xbc393a16	-0.011305353
94	0x3c1e18ce	0.009649469
95	0x3c1d781f	0.009611159
96	0x3d05ec29	0.032695923
97	0x3c3f7577	0.011685721
98	0x3c760c79	0.015017622
99	0xbce25bb0	-0.02763161
100	0xbcf9e3e9	-0.030504184
101	0x3c4f48c0	0.012651622
102	0x3e465984	0.19370085
103	0x3d3363e5	0.04379644
104	0xbe3102e5	-0.1728626
105	0x3cfdd2f2	0.030984376
106	0xbdfc80a4	-0.12329224
107	0xbe722bd1	-0.23649527
108	0x3d00824e	0.03137427
109	0xbde8ee8f	-0.113736264
110	0x3cb02ac8	0.021504775
111	0xbe14083e	-0.14456269
112	0xbe0d6e43	-0.13811593
113	0x3e109f71	0.14123322
114	0xbde0ff3f	-0.10986184
115	0x3df26efa	0.11837573
116	0xbd5584fa	-0.05212877
117	0x3e879ab6	0.26485223
118	0xbe3f218d	-0.18665142
119	0xbecaf439	-0.39639452
120	0x3d284305	0.04107954
121	0x3db73d2a	0.08947213
122	0xbe6499d6	-0.22324309
123	0x3cc2cb6f	0.023778645
124	0xbd851150	-0.06497443
125	0x3e20fb7c	0.15720934
126	0xbe4ba30d	-0.19886418
127	0x3dedd5a4	0.11613014
128	0x3e3ed3a2	0.18635419
129	0x3e380b66	0.17973098
130	0xbe608a14	-0.21927673
131	0xbd016b23	-0.031596314
132	0xbdf25d42	-0.11834194
133	0x3dc98d52	0.09841408
134	0x3e56e93d	0.20987411
135	0x3ca86dc9	0.020560162
136	0xbcb15fd8	-0.021652147
137	0xbdbe87b2	-0.093032256
138	0xbd9cff73	-0.076659106
139	0xbdabc63c	-0.083874196
140	0x3cdc9901	0.026928427
141	0xbe2028ca	-0.1564056
142	0x3d370601	0.04468346
143	0x3db4b955	0.08824412
144	0xbd839cb5	-0.06426374
145	0xbd0c9c0a	-0.034328498
146	0x3d98e178	0.0746488
147	0xbd02b0e4	-0.031906977
148	0x3e04e316	0.12977251
149	0xbd25d5ee	-0.040487222
150	0x3da60daa	0.08108075
151	0x3e029ada	0.12754384
152	0x3e02d458	0.12776315
153	0x3bf236d2	0.007391789
154	0x3e49ba8c	0.19700068
155	0x3df9f9ce	0.122058496
156	0xbda8fbd0	-0.082511544
157	0xbd9cb5f5	-0.07651893
158	0x3e3c54ab	0.18391673
159	0x3e1392b9	0.14411439
160	0x3cb23368	0.021753028
161	0x3db3be82	0.08776571
162	0x3d39d35a	0.045367576
163	0x3e142565	0.1446739
164	0x3e94b9e9	0.29048088
165	0x3e7d3e7e	0.2473087
166	0xbd773442	-0.06035257
167	0xbd3b4d31	-0.045727912
168	0x3e824988	0.25446725
169	0xbdf57fbb	-0.11987253
170	0x3e197109	0.14984526
171	0xbd024cfa	-0.03181169
172	0xbda36340	-0.07977915
173	0x3e4104ae	0.18849441
174	0x3d73b770	0.05950111
175	0xbdc51944	-0.0962396
176	0xbdd0add0	-0.10189402
177	0x3d94b77f	0.072615616
178	0x3b6d7cb2	0.0036237654
179	0xbc829ebc	-0.015944831
180	0x3b302768	0.0026878957
181	0x3e0f3a76	0.13987145
182	0xbdc06521	-0.09394289
183	0xbd148f4e	-0.03626948
184	0xbd173b5c	-0.036921844
185	0xbdadf349	-0.084936686
186	0x3c8fb02e	0.017540064
187	0x3ce38934	0.027775384
188	0x3e044f5b	0.12920897
189	0xbe8cbdb1	-0.27488473
190	0x3c6f6060	0.01461038
191	0xbb897c2c	-0.0041957106
192	0xbc187474	-0.009305108
193	0x3da133e5	0.07871226
194	0xbe137cda	-0.14403096
195	0x3cfe0da8	0.031012371
196	0x3c93687c	0.017994158
197	0x3cccfb61	0.02502221
198	0x3e0ed2ea	0.13947645
199	0xbd8c435d	-0.06848786
200	0xbdd15c1e	-0.10222648
201	0x3db5fdc5	0.08886293
202	0xbad3cd0c	-0.0016159131
203	0x3dbfea21	0.093708284
204	0xbd13470e	-0.035956435
205	0xbd5b203d	-0.05349754
206	0x3e1ca84a	0.15298572
207	0x3d0eaaf3	0.034831
208	0xbd174374	-0.036929563
209	0xbb00dc22	-0.001966246
210	0xbd4cbbab	-0.04998366
211	0xbd33cad9	-0.043894622
212	0x3d01fb30	0.03173369
213	0x3d8ec220	0.0697062
214	0xbe0b56f0	-0.13607383
215	0x3d424b90	0.047435343
216	0x3dbf6906	0.093462035
217	0x3c2f2b89	0.010691532
218	0x3dc2a31a	0.095037654
219	0xbcbfd215	-0.023415605
220	0x3e132297	0.14368664
221	0x3ca28400	0.019838333
222	0xbd89029c	-0.06689951
223	0x3d0bdae2	0.03414429
224	0xbc1a449c	-0.009415772
225	0x3e3839ed	0.17990847
226	0x3d6c170c	0.057639167
227	0x3c63f65c	0.013913717
228	0xbd6dd946	-0.058068536
229	0x3c61a6ee	0.013772709
230	0xbe89252b	-0.2678617
231	0xbc2e7315	-0.010647555
232	0x3daafffe	0.08349608
233	0x3df2cf78	0.11855978
234	0xb9726280	-0.00023115613
235	0xbd42114c	-0.047379777
236	0xbbccdbd7	-0.006251793
237	0xbd43bc5e	-0.047787063
238	0xbcf9c879	-0.0304911
239	0x3d28e287	0.04123166
240	0x3d616c5d	0.055034984
241	0xbc8487ed	-0.016178096
242	0xbbf5788e	-0.007491178
243	0x3d22a06f	0.039703783
244	0xbd31d4a4	-0.04341568
245	0xbdd85830	-0.105636954
246	0xbb8aad66	-0.0042320965
247	0x3be74874	0.0070581976
248	0x3cf78af8	0.030217633
249	0xbda430e8	-0.080171406
250	0xbdd5d540	-0.10441065
251	0x3e147987	0.14499484
252	0xbdf091fd	-0.11746595
253	0x3e906f3a	0.2820986
254	0xbe54151e	-0.2071118
255	0x3beb52a0	0.0071814805

lstm.weight_hh_l0 f4 [140, 35]
0	0x3cd2d430	0.025735945
1	0x3b09f125	0.0021048274
2	0xb9306234	-0.00016821251
3	0xbdde0414	-0.108406216
4	0x3b2815b2	0.0025647697
5	0xbbf08eb5	-0.0073412308
6	0xbcf43e70	-0.029814929
7	0xbbf2aef6	-0.007406111
8	0x3c3467b2	0.011011051
9	0xbb55aac4	-0.0032603005
10	0xbbd649bd	-0.006539552
11	0xba6c3064	-0.00090098963
12	0xbde1d861	-0.11027599
13	0x3d219de3	0.039457213
14	0x3d23646b	0.039890688
15	0x3ad7be40	0.0016459897
16	0xbd084e5a	-0.033277847
17	0x3d1352db	0.03596769
18	0x3ce0a03c	0.027420156
19	0xbd2d0793	-0.04224355
20	0x3e933afc	0.2875594
21	0x3b10b0f3	0.0022078126
22	0xbd969cca	-0.07354124
23	0x3c799630	0.015233561
24	0xbca44e08	-0.02005674
25	0x3ac7881c	0.0015223059
26	0xbc74c6e2	-0.0149399955
27	0x3b1f034c	0.002426344
28	0xbbade074	-0.005306298
29	0xbd40a295	-0.04703005
30	0x3c9a2097	0.018814368
31	0xbad1d7b9	-0.0016009725
32	0xbdaa0b15	-0.08302895
33	0x3c089eca	0.0083386395
34	0xbe12c6d9	-0.14333667
35	0xbc33d1a7	-0.010975278
36	0x3828e174	4.026429e-05
37	0xbb7b93b8	-0.0038387608
38	0x3baad972	0.00521391
39	0xb9140890	-0.0001411757
40	0x3b823d29	0.003974576
41	0x3c83147b	0.016000977
42	0x3b7c5acb	0.0038506265
43	0x3c5767d0	0.013147309
44	0x3a88451a	0.001039657
45	0x3b2eece0	0.0026691481
46	0xba04688f	-0.0005050981
47	0xbb2ef92c	-0.002669881
48	0xbcf2a015	-0.029617349
49	0xbc51d75e	-0.012807695
50	0x3b733dbf	0.003711566
51	0x3bb4baf5	0.005515451
52	0x3c514800	0.012773514
53	0xbca4262c	-0.020037733
54	0x3b153c48	0.0022771526
55	0x3caa582f	0.020794002
56	0x3b5e1278	0.003388552
57	0xbdc0d062	-0.09414746
58	0x3b3d2d4b	0.0028866108
59	0xbb7729ee	-0.00377142
60	0x3a045636	0.0005048247
61	0x3b6f7e59	0.0036543815
62	0x3901a3d8	0.00012363435
63	0xbc1d12f8	-0.009587042
64	0x3bc6496c	0.006051233
65	0xbc59372c	-0.013257783
66	0xbad86427	-0.001650934
67	0x3c317690	0.01083149
68	0x3a1373b2	0.0005624845
69	0xbb21390c	-0.0024600653
70	0x3d3e8274	0.04651113
71	0x3c5f32ab	0.01362292
72	0x3d263e12	0.04058654
73	0xbbc49d68	-0.0060002096
74	0x3b70a31c	0.0036718315
75	0x3bc3c27f	0.0059741135
76	0xbe06c6e3	-0.13161807
77	0x3dcde69a	0.100537494
78	0x3e0306f7	0.12795626
79	0xbc5313fa	-0.012883181
80	0xbd6692e5	-0.056292433
81	0x3c045a89	0.008078226
82	0x3dfe6370	0.1242131
83	0x3dd72c27	0.10506468
84	0x3dcadef1	0.09905804
85	0xbc69e538	-0.014275841
86	0xbd9524b9	-0.07282395
87	0x3c22b5f9	0.009931081
88	0x3d99c855	0.075089134
89	0xbbb91520	-0.0056482702
90	0x3d113f60	0.03546083
91	0x3c5d4744	0.013505761
92	0xbf123942	-0.5711862
93	0x3b8a208a	0.0042153047
94	0xbbed7544	-0.007246645
95	0xbc91804a	-0.017761368
96	0xbcbc5887	-0.022991432
97	0x3b8cbf42	0.0042952606
98	0x3d02dd99	0.031949613
99	0xbdb4358e	-0.08799277
100	0xbca5f979	-0.02026056
101	0x3c112bf4	0.008860577
102	0xbd131710	-0.035910666
103	0xb9e928d0	-0.0004447163
104	0xbe7857c8	-0.24252236
105	0x3e007280	0.12543678
106	0x3c00e30c	0.007866632
107	0xbce01fd0	-0.02735892
108	0xbdbfaa0e	-0.09358607
109	0x3ca92d2d	0.020651424
110	0xbae0f750	-0.0017163549
111	0xbda57762	-0.08079411
112	0xbdc3e613	-0.095653675
113	0x3b3c4442	0.0028727208
114	0xbc6d5ba0	-0.014487177
115	0xbcb5bf26	-0.022185873
116	0xb98e88d4	-0.00027186295
117	0x3cf8f503	0.030390268
118	0x3ebe459d	0.37162486
119	0x3e17baf8	0.14817417
120	0xbba54824	-0.005044
121	0xbd95ea12	-0.07320036
122	0xbe14bed5	-0.14525922
123	0x3df35712	0.11881842
124	0xbd8eda39	-0.069752164
125	0x3f301ba0	0.6879215
126	0x3b4ecc2c	0.0031554801
127	0xbed28799	-0.41119078
128	0x3d250f92	0.040298052
129	0xbde79952	-0.113085404
130	0x3c04e569	0.008111336
131	0xbd84ab7e	-0.06478022
132	0x3c2332e8	0.009960867
133	0xbc992b50	-0.01869741
134	0xbdbce04f	-0.09222471
135	0xbccb7014	-0.024833716
136	0x3c5adb1d	0.013357905
137	0xbe3a522d	-0.1819541
138	0x3d640642	0.05567003
139	0xbe8b9113	-0.2725912
140	0xbb24f79c	-0.0025172
141	0xb9e2f357	-0.0004328738
142	0xbbb7e0cc	-0.0056115147
143	0xba169798	-0.0005744635
144	0xbc1d802c	-0.009613078
145	0x3ca02fe0	0.019554079
146	0xb9ca7e90	-0.0003862274
147	0x3cef6710	0.029223949
148	0xbc51aaf9	-0.012797111
149	0xb9c69a78	-0.0003788059
150	0x3b543c6b	0.0032384645
151	0xbbd10a4a	-0.0063794004
152	0x3e6b321b	0.22968332
153	0xbb57e3e0	-0.003294222
154	0xba877592	-0.0010334721
155	0xbabd5ad6	-0.0014446627
156	0xbb792f70	-0.003802266
157	0xbda289f4	-0.07936469
158	0xbb540ffa	-0.0032358156
159	0x3baa27c1	0.0051927273
160	0xbdbb9fdc	-0.0916135
161	0x38c47918	9.368564e-05
162	0xbc817c5c	-0.01580637
163	0xbb43b7fd	-0.0029864304
164	0x3b93adea	0.004506816
165	0x3d716a5e	0.05893933
166	0xb9a98150	-0.00032330537
167	0x39da3b1b	0.00041624237
168	0x3b890d2d	0.004182479
169	0x3ad8d723	0.0016543608
170	0x3afbf5f2	0.0019223078
171	0x3adef4a2	0.0017010162
172	0x3d78191b	0.060570817
173	0xbbcd7d1d	-0.006271018
174	0x3cc69040	0.024238706
175	0xbcf4bb55	-0.029874483
176	0xbaab8c59	-0.0013088092
177	0xba2d3fea	-0.000660895
178	0x3e94b198	0.29041743
179	0xbc59f8c0	-0.0133039355
180	0x3ca52693	0.020159995
181	0x3cde94a8	0.027170494
182	0x3c44f17c	0.012020465
183	0x3d05a089	0.0326238
184	0x3accb295	0.0015617186
185	0xbb0a16ba	-0.0021070675
186	0xbb3bf159	-0.002867779
187	0x3e9dd1ca	0.3082412
188	0xbd369108	-0.044571906
189	0xbbf266ac	-0.0073974933
190	0xbbd9088b	-0.006623333
191	0x3ce302c5	0.027711282
192	0x3dba501e	0.090973124
193	0xbc295460	-0.010335058
194	0x3d369f8d	0.044585753
195	0xbf237dba	-0.6386372
196	0x3c8f60ac	0.017502151
197	0xbd247dbc	-0.040158972
198	0xbd2143ae	-0.039371185
199	0x3da1721e	0.07883094
200	0x3d23f423	0.04002775
201	0x3c8e7864	0.017391391
202	0xb9eb37c7	-0.0004486425
203	0xbd52cbe4	-0.051463977
204	0x3ceeffc9	0.029174702
205	0xbd9c780f	-0.07640087
206	0xbbc903cb	-0.0061344854
207	0x3d18a976	0.037270986
208	0xbc0d3e5e	-0.0086208265
209	0x3e000d93	0.12505178
210	0x3b85aadf	0.0040792073
211	0x3b222cf0	0.0024746023
212	0xbc0a030f	-0.008423581
213	0x3cc35db4	0.023848392
214	0x3ca057bc	0.019573085
215	0x3bb33421	0.0054688607
216	0xbc4b32f3	-0.012402284
217	0x3ce3592d	0.027752483
218	0xbc78d53e	-0.01518756
219	0xbb9dce5c	-0.0048158597
220	0xbd31b66b	-0.043386858
221	0xbc016b6a	-0.007899145
222	0x3f03d3c6	0.51495016
223	0x3c2d1fc1	0.010566653
224	0x3ae7c37d	0.0017682161
225	0x3a7e52c6	0.0009701665
226	0x3a857680	0.001018241
227	0xbd3ccca1	-0.046093587
228	0x3c82bbdc	0.015958719
229	0x3d4d1e8a	0.050077952
230	0x3b0bf52c	0.002135585
231	0x3dfb84aa	0.12281163
232	0x3ec5ee77	0.38658497
233	0xbd05dc9c	-0.032681093
234	0xbc46234b	-0.012093375
235	0xbcb8e2d8	-0.022569105
236	0xbc42d2f8	-0.011891119
237	0x3b0b7d24	0.0021284306
238	0xbd610f95	-0.0549465
239	0xbb8832aa	-0.0041564303
240	0xbd21b28b	-0.039476912
241	0x3bbe683d	0.005810766
242	0xbd1393e6	-0.03602972
243	0x3b90d50e	0.0044199293
244	0x3b95fd4e	0.0045773154
245	0x3e9e28e8	0.30890584
246	0x3eb85442	0.36001784
247	0x3ee1eec4	0.44127476
248	0xbf394630	-0.7237272
249	0x3ee63f3b	0.44970116
250	0xbea31296	-0.31850117
251	0xbf556120	-0.83351326
252	0x3e966954	0.29377234
253	0x3f0d53f8	0.5520625
254	0xbe7bda38	-0.24594963
255	0xbcbd4f30	-0.023109049

lstm.bias_ih_l0 f4 [140]
0	0x3dc5ed5e	0.09664415
1	0xbacf74af	-0.0015827621
2	0xbe05500c	-0.13018817
3	0xbcd8982b	-0.026439747
4	0xbe69cb96	-0.22831568
5	0xbe9aafc0	-0.30212212
6	0xbf03a36c	-0.51421237
7	0x3de38c4c	0.11110744
8	0xbec3a9d7	-0.38215515
9	0x3ce9c5eb	0.028536757
10	0xbdc027d9	-0.093826
11	0xbe5ed182	-0.21759608
12	0x3f193411	0.5984507
13	0x3e1b2f92	0.15154865
14	0xbe8450d6	-0.25842923
15	0xbf473403	-0.7781374
16	0xbe232bd7	-0.15934692
17	0xbeca5c14	-0.39523375
18	0x3df38cf2	0.118921176
19	0xbd00705c	-0.031357154
20	0x3ebd7e44	0.37010396
21	0xbe854b98	-0.26034236
22	0xbea3219f	-0.31861588
23	0xbe09e57f	-0.13466452
24	0x3c1e140a	0.009648332
25	0xbe8d0ba1	-0.27547935
26	0xbb817fe4	-0.0039520133
27	0xbd8010f0	-0.062532306
28	0xbe899b41	-0.26876262
29	0x3da7134c	0.081579775
30	0xbe3c381d	-0.1838078
31	0xbe6bf85f	-0.23043965
32	0x3da9a551	0.08283485
33	0xbd955aca	-0.07292707
34	0x3e8b9268	0.27260137
35	0x3db1ceda	0.08682032
36	0x3a8ab878	0.001058354
37	0xbd9ab0d3	-0.07553258
38	0x3e8850ce	0.2662415
39	0xbdd97f13	-0.106199406
40	0xbdbe3470	-0.092873454
41	0xbe15d089	-0.14630331
42	0x3de1c704	0.11024287
43	0xbce64b6d	-0.028112138
44	0x3c8bad94	0.017050542
45	0xbdb11c70	-0.08648002
46	0xbd7610b7	-0.060074534
47	0x3f13a739	0.57677037
48	0x3ead1542	0.3380528
49	0xbe3078b8	-0.1723355
50	0xbe6459fa	-0.22299948
51	0xbe211206	-0.15729532
52	0xbec664d4	-0.387488
53	0xbeb9cec0	-0.3629055
54	0x3d968a06	0.07350545
55	0x3f035f6c	0.5131748
56	0xbdeaec43	-0.114708446
57	0x3f3392c6	0.70145833
58	0xbd8a5f3c	-0.06756446
59	0x3de6e07c	0.11273286
60	0xbe792ea1	-0.24334194
61	0xbce408b0	-0.027836174
62	0xbdb66e16	-0.08907716
63	0xbe6de0f3	-0.23230343
64	0xbddec02a	-0.10876496
65	0xbe5b9800	-0.21444702
66	0xbde2d608	-0.110759795
67	0xbe0ed08e	-0.13946745
68	0xbce62127	-0.02809198
69	0xbf116f24	-0.5681021
70	0x3e3ab0f7	0.18231569
71	0x3d01fc6c	0.03173487
72	0xbe78d83d	-0.24301238
73	0xbea7885c	-0.3272122
74	0x3d4b087b	0.049568634
75	0xbd99761c	-0.07493231
76	0x3ca03147	0.019554747
77	0xbf7f9af4	-0.99845815
78	0xbf266c9b	-0.6500947
79	0xbda4193c	-0.080126256
80	0x3e3312d7	0.17487656
81	0x3d081286	0.03322079
82	0xbf0df367	-0.5544953
83	0x3eca3aef	0.39498088
84	0xbe4d30e6	-0.20038185
85	0x3e75fa8e	0.2402136
86	0xbec9e461	-0.39432052
87	0x3ecf3e02	0.40476996
88	0xbd04e22c	-0.032442257
89	0xbeaf1a89	-0.34199932
90	0x3e2b3aae	0.16721603
91	0x3e63e579	0.22255506
92	0xbf9dd709	-1.2331249
93	0x3e1ad9b8	0.15122116
94	0xbdd4c082	-0.103882805
95	0x3ec40abd	0.38289443
96	0xbe6e318d	-0.2326109
97	0x3c800e52	0.015631828
98	0xbea8c84b	-0.3296531
99	0xbe92ae4d	-0.28648606
100	0x3d0a6b22	0.033793576
101	0xbe47cb92	-0.1951125
102	0xbdc9160a	-0.09818657
103	0x3de73df9	0.11291117
104	0x3ef87dc8	0.48533463
105	0xbe85df8b	-0.26147112
106	0xbf29d7ca	-0.6634489
107	0xbe8427bc	-0.25811565
108	0xbc9a87c0	-0.018863559
109	0xbead812a	-0.33887607
110	0xbe8c7253	-0.27430972
111	0xbf1a111c	-0.60182357
112	0xbf363ddc	-0.7118814
113	0xbf1b009e	-0.60547817
114	0xbf4095fa	-0.75228846
115	0xbe694430	-0.22779918
116	0xbebb1530	-0.36539602
117	0x3f7008cb	0.93763417
118	0x3cf9cde4	0.030493684
119	0xbef12bd9	-0.47103766
120	0x3d9867ee	0.07441698
121	0xbeb682cb	-0.35646662
122	0xbfc43732	-1.5329344
123	0xbe581703	-0.21102528
124	0xbd5b273a	-0.053504206
125	0x3e06e2b6	0.13172421
126	0xbeb94942	-0.36188704
127	0x3f805987	1.0027322
128	0xbe43bc59	-0.19114818
129	0xbef151e4	-0.4713279
130	0xbf18ead5	-0.59733325
131	0xbec760a1	-0.3894091
132	0xbf0f678a	-0.56017363
133	0xbf175fda	-0.5913063
134	0xbe98ff39	-0.2988222
135	0xbf09a52c	-0.5376766
136	0xbef143e4	-0.4712211
137	0xbe5378cc	-0.20651549
138	0xbe91736c	-0.28408372
139	0xbecce74b	-0.40020213

lstm.bias_hh_l0 f4 [140]
0	0x3dc5ed5e	0.09664415
1	0xbacf74af	-0.0015827621
2	0xbe05500c	-0.13018817
3	0xbcd8982b	-0.026439747
4	0xbe69cb96	-0.22831568
5	0xbe9aafc0	-0.30212212
6	0xbf03a36c	-0.51421237
7	0x3de38c4c	0.11110744
8	0xbec3a9d7	-0.38215515
9	0x3ce9c5eb	0.028536757
10	0xbdc027d9	-0.093826
11	0xbe5ed182	-0.21759608
12	0x3f193411	0.5984507
13	0x3e1b2f92	0.15154865
14	0xbe8450d6	-0.25842923
15	0xbf473403	-0.7781374
16	0xbe232bd7	-0.15934692
17	0xbeca5c14	-0.39523375
18	0x3df38cf2	0.118921176
19	0xbd00705c	-0.031357154
20	0x3ebd7e44	0.37010396
21	0xbe854b98	-0.26034236
22	0xbea3219f	-0.31861588
23	0xbe09e57f	-0.13466452
24	0x3c1e140a	0.009648332
25	0xbe8d0ba1	-0.27547935
26	0xbb817fe4	-0.0039520133
27	0xbd8010f0	-0.062532306
28	0xbe899b41	-0.26876262
29	0x3da7134c	0.081579775
30	0xbe3c381d	-0.1838078
31	0xbe6bf85f	-0.23043965
32	0x3da9a551	0.08283485
33	0xbd955aca	-0.07292707
34	0x3e8b9268	0.27260137
35	0x3db1ceda	0.08682032
36	0x3a8ab878	0.001058354
37	0xbd9ab0d3	-0.07553258
38	0x3e8850ce	0.2662415
39	0xbdd97f13	-0.106199406
40	0xbdbe3470	-0.092873454
41	0xbe15d089	-0.14630331
42	0x3de1c704	0.11024287
43	0xbce64b6d	-0.028112138
44	0x3c8bad94	0.017050542
45	0xbdb11c70	-0.08648002
46	0xbd7610b7	-0.060074534
47	0x3f13a739	0.57677037
48	0x3ead1542	0.3380528
49	0xbe3078b8	-0.1723355
50	0xbe6459fa	-0.22299948
51	0xbe211206	-0.15729532
52	0xbec664d4	-0.387488
53	0xbeb9cec0	-0.3629055
54	0x3d968a06	0.07350545
55	0x3f035f6c	0.5131748
56	0xbdeaec43	-0.114708446
57	0x3f3392c6	0.70145833
58	0xbd8a5f3c	-0.06756446
59	0x3de6e07c	0.11273286
60	0xbe792ea1	-0.24334194
61	0xbce408b0	-0.027836174
62	0xbdb66e16	-0.08907716
63	0xbe6de0f3	-0.23230343
64	0xbddec02a	-0.10876496
65	0xbe5b9800	-0.21444702
66	0xbde2d608	-0.110759795
67	0xbe0ed08e	-0.13946745
68	0xbce62127	-0.02809198
69	0xbf116f24	-0.5681021
70	0x3e3ab0f7	0.18231569
71	0x3d01fc6c	0.03173487
72	0xbe78d83d	-0.24301238
73	0xbea7885c	-0.3272122
74	0x3d4b087b	0.049568634
75	0xbd99761c	-0.07493231
76	0x3ca03147	0.019554747
77	0xbf7f9af4	-0.99845815
78	0xbf266c9b	-0.6500947
79	0xbda4193c	-0.080126256
80	0x3e3312d7	0.17487656
81	0x3d081286	0.03322079
82	0xbf0df367	-0.5544953
83	0x3eca3aef	0.39498088
84	0xbe4d30e6	-0.20038185
85	0x3e75fa8e	0.2402136
86	0xbec9e461	-0.39432052
87	0x3ecf3e02	0.40476996
88	0xbd04e22c	-0.032442257
89	0xbeaf1a89	-0.34199932
90	0x3e2b3aae	0.16721603
91	0x3e63e579	0.22255506
92	0xbf9dd709	-1.2331249
93	0x3e1ad9b8	0.15122116
94	0xbdd4c082	-0.103882805
95	0x3ec40abd	0.38289443
96	0xbe6e318d	-0.2326109
97	0x3c800e52	0.015631828
98	0xbea8c84b	-0.3296531
99	0xbe92ae4d	-0.28648606
100	0x3d0a6b22	0.033793576
101	0xbe47cb92	-0.1951125
102	0xbdc9160a	-0.09818657
103	0x3de73df9	0.11291117
104	0x3ef87dc8	0.48533463
105	0xbe85df8b	-0.26147112
106	0xbf29d7ca	-0.6634489
107	0xbe8427bc	-0.25811565
108	0xbc9a87c0	-0.018863559
109	0xbead812a	-0.33887607
110	0xbe8c7253	-0.27430972
111	0xbf1a111c	-0.60182357
112	0xbf363ddc	-0.7118814
113	0xbf1b009e	-0.60547817
114	0xbf4095fa	-0.75228846
115	0xbe694430	-0.22779918
116	0xbebb1530	-0.36539602
117	0x3f7008cb	0.93763417
118	0x3cf9cde4	0.030493684
119	0xbef12bd9	-0.47103766
120	0x3d9867ee	0.07441698
121	0xbeb682cb	-0.35646662
122	0xbfc43732	-1.5329344
123	0xbe581703	-0.21102528
124	0xbd5b273a	-0.053504206
125	0x3e06e2b6	0.13172421
126	0xbeb94942	-0.36188704
127	0x3f805987	1.0027322
128	0xbe43bc59	-0.19114818
129	0xbef151e4	-0.4713279
130	0xbf18ead5	-0.59733325
131	0xbec760a1	-0.3894091
132	0xbf0f678a	-0.56017363
133	0xbf175fda	-0.5913063
134	0xbe98ff39	-0.2988222
135	0xbf09a52c	-0.5376766
136	0xbef143e4	-0.4712211
137	0xbe5378cc	-0.20651549
138	0xbe91736c	-0.28408372
139	0xbecce74b	-0.40020213

linear.weight f4 [71, 35]
0	0xbda30d62	-0.07961537
1	0x3a63cdb8	0.0008690017
2	0xbc3cbf07	-0.011520154
3	0x3d8cea36	0.0688061
4	0xbc53fad3	-0.012938219
5	0x3d0df959	0.034661625
6	0xbbda1a89	-0.0066559953
7	0xbdbc11cc	-0.09183082
8	0x3bcdf300	0.0062850714
9	0x3d2006a6	0.03906884
10	0x3d069285	0.032854576
11	0x3ce5e691	0.028064044
12	0x3fd0a807	1.6301278
13	0xbce0e0d7	-0.027450962
14	0xbcaee1a8	-0.021347836
15	0x3ef80b0e	0.48445934
16	0xbce978fc	-0.028500073
17	0x3e911e9a	0.2834366
18	0x3d98c41e	0.074592814
19	0x3cbd4da8	0.023108318
20	0xbf4db7c8	-0.8035855
21	0xbd48e3ac	-0.04904525
22	0x3f2cab3a	0.6744877
23	0xbc27aa92	-0.010233538
24	0x3e2b88ee	0.16751453
25	0xbd8ebc99	-0.06969566
26	0x3d0021b2	0.031282134
27	0xbcda09fb	-0.026616087
28	0x3d34aeb9	0.04411194
29	0x3d48afbd	0.048995722
30	0x3db1326a	0.08652194
31	0x3c992b6a	0.01869746
32	0x3c998faa	0.018745262
33	0xbe65fcb9	-0.22459687
34	0x3df519c8	0.11967808
35	0xbe680ab4	-0.22660333
36	0xbc577ee4	-0.013152812
37	0xbd021f8e	-0.031768374
38	0x3e8c0cf7	0.2735364
39	0x3cf02768	0.029315665
40	0x3e2fe3c2	0.17176726
41	0x3e09a27b	0.13440888
42	0x3be5b0f4	0.00700962
43	0x3e6aac8b	0.22917382
44	0x3df0e592	0.11762537
45	0x3e699cd1	0.22813727
46	0xbc7a3920	-0.015272409
47	0x3fc6c8f6	1.5530078
48	0xbe435c4f	-0.19078182
49	0xbcf40a90	-0.029790193
50	0xbdeabedd	-0.114621855
51	0x3db73ff8	0.08947748
52	0xbbfa97a0	-0.0076474696
53	0xbe1617a3	-0.14657454
54	0x3dcb72e9	0.09934027
55	0xbfbc310a	-1.4702466
56	0xbe27b3be	-0.1637716
57	0x3fac429e	1.345783
58	0xbb8d984a	-0.004321133
59	0x3edc5fff	0.4304199
60	0x3d418a21	0.04725087
61	0x3d9a8e3c	0.0754666
62	0xbd4934f9	-0.049122784
63	0x3dce93d9	0.100867935
64	0x3dcce698	0.1000492
65	0x3e685cca	0.22691646
66	0xbcad5a80	-0.021161318
67	0x3e6eaaef	0.23307393
68	0xbe2bbed3	-0.16772012
69	0x3e3e6a46	0.18595228
70	0xbcb69765	-0.022288987
71	0x3de0a03e	0.10968064
72	0x3e000b82	0.1250439
73	0x3dbbc7a7	0.0916894
74	0x3e236d37	0.15959631
75	0x3ebbad5a	0.36655694
76	0xbd18d15e	-0.037309043
77	0xbf0ced71	-0.55049807
78	0x3bb5ac97	0.005544256
79	0xbe9de056	-0.30835217
80	0x3e2bf8d4	0.16794139
81	0x3e746894	0.23868018
82	0x3fbb6566	1.4640319
83	0xbde27258	-0.110569656
84	0xbd0c1279	-0.034197304
85	0xbddf8f87	-0.109160475
86	0x3dc5d7d2	0.09660305
87	0x3fd81c31	1.6883603
88	0xbf48b233	-0.7839691
89	0xbc4f2020	-0.012641937
90	0xbec18047	-0.3779318
91	0xbd94ef97	-0.07272261
92	0x3f2b27a4	0.6685736
93	0x3c415462	0.011799904
94	0x3ca466c8	0.020068541
95	0xbefc7884	-0.49310696
96	0x3d13db14	0.0360976
97	0xbcfddabc	-0.03098809
98	0xbe9de194	-0.30836165
99	0x3e19217f	0.14954184
100	0xbc23ba2e	-0.009993119
101	0x3d322f32	0.04350204
102	0xbd41dd2d	-0.04733007
103	0x3e82d4fd	0.25553122
104	0x3e8a5157	0.27015182
105	0xbdd2d902	-0.10295297
106	0xbc4be98d	-0.01244582
107	0xbc790462	-0.015198799
108	0x3e048983	0.12943082
109	0x3bc3b919	0.005972993
110	0x3df8d283	0.12149527
111	0x3ca9f075	0.020744542
112	0xbd6510dc	-0.05592428
113	0x3d5bd144	0.053666368
114	0x3cfc1dab	0.030775866
115	0x3dd0196e	0.101611
116	0x3c7b955d	0.015355435
117	0x3fdf4259	1.7442123
118	0xbde4d6a1	-0.1117375
119	0xbd5bff5b	-0.053710323
120	0xba2a5a16	-0.0006498409
121	0x3d9e2848	0.07722527
122	0x3e81b9e3	0.25337133
123	0xbd2e0244	-0.04248263
124	0x3ca30d76	0.01990388
125	0xbf0cfcf1	-0.5507346
126	0xbd543bf9	-0.051815007
127	0x3e8b3e23	0.27195844
128	0xbd0fbdf5	-0.035093267
129	0x3e27438d	0.16334362
130	0xbd1ca85e	-0.038246505
131	0x3d28eb8b	0.041240256
132	0xbd035555	-0.0320638
133	0x3d20434a	0.03912667
134	0x3e063d7f	0.13109396
135	0x3e432567	0.19057237
136	0x3c567128	0.013088502
137	0x3c8799cc	0.016552828
138	0xbd88db91	-0.06682504
139	0x3de6a265	0.11261443
140	0x3e337266	0.17524108
141	0x3e614fe8	0.22003138
142	0x3e35de15	0.17760499
143	0xbc92025b	-0.017823389
144	0xbe2fe035	-0.17175372
145	0xbeca1e67	-0.3947632
146	0x3e29a12a	0.16565385
147	0xbcdade3d	-0.0267173
148	0x3ead12d6	0.33803433
149	0xbc236694	-0.009973187
150	0x3e308335	0.17237552
151	0xbd9e8138	-0.0773949
152	0x3f313d51	0.69234186
153	0x3e1af6ee	0.15133259
154	0x3cc68117	0.024231477
155	0xbdf3fbf0	-0.11913288
156	0x3ea74149	0.32666996
157	0xbfb2a0fa	-1.3955376
158	0xbd29ffdd	-0.041503776
159	0xbe21255b	-0.15736906
160	0xbef1d180	-0.47230148
161	0xbe1c2f07	-0.15252315
162	0xbe988154	-0.2978617
163	0xbda4f6d8	-0.08054894
164	0xbe76781c	-0.24069256
165	0x3f9f9dee	1.2470071
166	0x3cbf1a91	0.023328098
167	0x3e84e530	0.25956106
168	0x3d75104c	0.059829995
169	0xbe868b63	-0.2627822
170	0x3ef1839c	0.47170722
171	0xbe31d689	-0.17366995
172	0x3f15d75f	0.58531755
173	0xbd9cea7a	-0.0766191
174	0x3f2c8ff6	0.67407167
175	0xbdc8bda2	-0.098017946
176	0x3c977586	0.018488657
177	0x3da04277	0.07825177
178	0x3ed4050c	0.414101
179	0xbd08c022	-0.033386357
180	0x3c103724	0.008802209
181	0x3cdca1f5	0.026932696
182	0xbdd9b04e	-0.106293306
183	0x3d3db12c	0.046311542
184	0xbe97be59	-0.2963741
185	0x3d98a19d	0.074527
186	0x3d5804bf	0.0527389
187	0x3f9104d3	1.1329597
188	0xbea6785e	-0.32513708
189	0xbafca868	-0.0019276263
190	0x3cd65c35	0.026167015
191	0x3e28116e	0.16412899
192	0x3f46edfc	0.77706885
193	0xbe36081c	-0.17776531
194	0x3eaa9090	0.33313417
195	0xbefadf94	-0.48998702
196	0xbd8cf7a5	-0.06883172
197	0xbec05122	-0.375619
198	0x3dc0e0f1	0.09417904
199	0x3f835d6a	1.0262883
200	0x3e9f49e7	0.3111107
201	0x3d4d8c94	0.050182894
202	0xbd6ad5eb	-0.057332914
203	0x3d3cfdea	0.04614059
204	0x3e47ae16	0.19500002
205	0xbf5752c4	-0.84110665
206	0xbd5f9569	-0.054585848
207	0x3ec94945	0.39313713
208	0xbd841295	-0.06448857
209	0x3c269922	0.010168346
210	0xbe973c6e	-0.29538292
211	0xbcb4a8d8	-0.022053167
212	0x3e400f99	0.1875595
213	0x3eeda78c	0.4641689
214	0xbe4992f1	-0.1968496
215	0xbec95a45	-0.39326683
216	0xbe964a05	-0.29353347
217	0x3f2ca546	0.6743969
218	0x3e009a90	0.12558961
219	0xbf1cf9fc	-0.61318946
220	0x3d3c9a3f	0.046045538
221	0x3d3d12eb	0.04616062
222	0x3f16e49e	0.5894259
223	0x3eac0916	0.33600682
224	0x3df913a6	0.12161951
225	0x3e52dd0a	0.20592132
226	0xbe53ade8	-0.20671809
227	0xbf2e349d	-0.6804903
228	0x3f38a901	0.7213288
229	0x3c1be7bc	0.009515699
230	0xbf452cc9	-0.7702146
231	0x3e079f37	0.1324433
232	0x3f184ea6	0.5949501
233	0xbe1fccec	-0.15605515
234	0x3e045867	0.12924348
235	0x3f7eb765	0.9949859
236	0x3dc78472	0.09742059
237	0x3f488181	0.7832261
238	0xbc0299d2	-0.007971244
239	0xbe91250d	-0.2834858
240	0x3f0b1d0c	0.54341197
241	0xbf12e241	-0.57376486
242	0x3ed37088	0.41296792
243	0xbe902be4	-0.28158486
244	0xbe826067	-0.25464174
245	0xbd025a1e	-0.031824224
246	0x3cad1419	0.021127747
247	0x3bd2ac56	0.0064292355
248	0x3e43a4a8	0.1910578
249	0xb9835dce	-0.00025056157
250	0x3db052a7	0.08609515
251	0x3c9a553d	0.018839473
252	0x3d5b16be	0.053488486
253	0x3c9c5f3f	0.019088386
254	0x3c8479b7	0.01617132
255	0x3db55a46	0.08855109

linear.bias f4 [71]
0	0xbfdb7bf4	-1.7147202
1	0xbfd8401e	-1.6894567
2	0xbfc24f55	-1.518046
3	0xbfe2b1dd	-1.771053
4	0xbf539a19	-0.8265701
5	0xbf984bd9	-1.1898147
6	0xbf1c86fc	-0.6114347
7	0xbfe28aa9	-1.7698566
8	0xbfebaf4b	-1.841287
9	0xbf6792ea	-0.9045855
10	0xbfe21d06	-1.7665107
11	0xbfe655cb	-1.7994932
12	0xbfb7dac0	-1.4363632
13	0xbfce8ac0	-1.6136093
14	0xbfc755d2	-1.5573065
15	0xbfe3598f	-1.7761706
16	0xbfeb11ac	-1.8364768
17	0xbfe91431	-1.8209287
18	0xbfe26cc9	-1.7689449
19	0xbfd53602	-1.6657107
20	0xbfd61964	-1.6726499
21	0xbfca0953	-1.5784096
22	0xbf966e10	-1.1752338
23	0xbfe6665c	-1.7999988
24	0xbfcc5edc	-1.5966449
25	0xbfabe691	-1.3429738
26	0xbfbded08	-1.4837961
27	0xbfd57911	-1.6677572
28	0xbf3c9e1f	-0.73678774
29	0xbfe29e7e	-1.7704618
30	0xbfdda2f4	-1.7315354
31	0xbfd07349	-1.6285182
32	0xbf0c415e	-0.5478724
33	0xbfadd9c8	-1.3582087
34	0xbf9de28e	-1.2334764
35	0xbfb4c0c5	-1.4121329
36	0xbebff594	-0.3749205
37	0xbfc115e4	-1.5084805
38	0xbf97bb14	-1.1853967
39	0xbf733181	-0.9499741
40	0xbf70fe3b	-0.94137925
41	0xbfdfaeb6	-1.7475193
42	0xbfe8ec8a	-1.8197186
43	0xbfc66682	-1.5500033
44	0xbfdf10c0	-1.7426987
45	0xbfe0ae03	-1.7553104
46	0xbf5f8271	-0.8730841
47	0xbfdce56c	-1.7257514
48	0xbff5db94	-1.9207635
49	0xbf41b471	-0.75665957
50	0xbfa55007	-1.2915047
51	0xbfd0b89a	-1.6306336
52	0xbfe0572e	-1.7526605
53	0xbfe54df7	-1.7914418
54	0xbf8f31e0	-1.1187096
55	0xbfb65314	-1.4244103
56	0xbfdc1c1a	-1.7196076
57	0xbf8989a1	-1.0745126
58	0xbffdb2c7	-1.9820184
59	0xbfe3932e	-1.7779291
60	0xbfabc9f1	-1.3421003
61	0xbf7663ca	-0.96246016
62	0xbfb2fa6a	-1.398267
63	0xbfa3f1b3	-1.2808136
64	0xbfc353d5	-1.5259959
65	0xbfafad3c	-1.3724742
66	0xbfd64055	-1.6738383
67	0xbfc095a1	-1.5045663
68	0xbf52ea06	-0.8238834
69	0xbfbc0ca6	-1.469136
70	0xbfb420aa	-1.4072468
